models/pose_classifier.tflite (tflite, 27240 bytes, 6 tensors)

model/dense_2/MatMul f4 [4, 64]
00000000: b627 b53e a1b1 5dbf 96bb 473f 7f86 d53e
00000010: b8bc 14be 90f2 cd3e ef6d 8f3d 59a7 493e
00000020: b172 47bf 5531 a1be fed7 02bf e5ad e43b
00000030: 7094 23bf d792 c43e af11 49be 23b7 34bf
00000040: b33c 6dbd 9d93 b9be 2135 e53e 9b57 c63e
00000050: 7a34 5bbf 5cb6 123e 54c1 173e 851f 73be
00000060: aa1e 07bf 88ac b1be a97c fa3e e251 e43d
00000070: 8e61 273e b576 963e 2a64 903e 143d 783e
00000080: 182f 943e a13e c1bd e78d 3fbf 1a1d 243e
00000090: 1213 5e3e b188 25bf f620 00bf 2d2b 99be
000000a0: 5bc2 5cbe 4493 6a3d d324 bdbe 3b2e 943e
000000b0: e32c 843e c424 1d3e 690b 4cbf 0623 cd3e
000000c0: 7821 29bf f98b 7dbe 3939 b7be c009 d9be
000000d0: 599c 71be 0c41 d03e 42a1 9c3e 3d4f 45bf
000000e0: d75f 893e d515 6bbe 0990 a9be 8d2c 8e3e
000000f0: 384a 45bf 549f 9dbe 2539 0ebc 3b4a 05bf
00000100: ce40 cfbe f35f 393e 288e 0abf 1e42 04bf
00000110: 3d9b 243e a455 cd3d 9be7 e13c a3b6 413e
00000120: 1541 67bd 044f 0c3e 9d44 a43e 39a5 a93e
00000130: c09b f83e c301 2abf 2cb3 d9be a38e 92be
00000140: b10d eebe cc28 cd3d fd9b f0be d29f 27bf
00000150: 6304 663e 410d 903d 19ec c3be a50e cf3e
00000160: 9476 ca3e 20a3 103f d69f e9be 3ced 1bbf
00000170: fc3a 343e 17c6 963e 06ba 913e 980f 38bf
00000180: 1f96 fabe 1dd6 343e b006 e7bd 2eda 473e
00000190: fa41 c13e b9b9 80bd 42bb b8bd d698 053e
000001a0: 616f be3e 1621 863c da4f ce3e a0d5 963e
000001b0: 06b3 953e 60d0 a73e 4419 aa3c 9181 eebe
000001c0: cac2 b33e e3b1 e93c 8f20 03bf ac8e a1bc
000001d0: 8ae3 0dbf 3c7d 45bf 900a 9c3e 3808 61bd
000001e0: 9c95 833e 0f8d a9be 16e5 d53e e05c 763e
000001f0: 0f52 e83e 90f8 e23e 598f b13e f4ac bf3e
00000200: 1dbb 02bf a26e 8a3e 85c5 21bf 6da1 883d
00000210: 37f8 cb3e 7ded 9d3e 45d2 de3b 70d2 663e
00000220: 37e7 7f3e e7d1 a93e 47f6 6abe 6da2 523e
00000230: 6457 11bf 8760 ae3e 49f2 543e 6113 f2bd
00000240: 1c82 653e eb50 963e 9aa1 5b3e a64f a73e
00000250: 5a50 213e 8f45 ffbe 4d7d 733e 6570 95be
00000260: 74e0 cbbe 54b4 d13c eb73 a3be a509 bf3d
00000270: 24ca e5be 3edd 5c3e 1657 dbbe 10cd 5d3e
00000280: 3631 853e e478 563e ec86 03bf 2168 cabe
00000290: 2a50 01bf c8cf 283d 7246 91be 1c0d 853e
000002a0: 16ee 003d 7350 d6bd 44a1 bc3e 1ade 4a3e
000002b0: dfb6 18bf d9d8 3b3d e382 563e 9a6e 8c3e
000002c0: ccf2 8d3d ff91 2e3d df6d d33e cbf7 28bf
000002d0: 3625 9c3e 2947 593d e13f 8e3e 9c9d 933d
000002e0: 6810 813e c7d6 ee3e 40b8 aa3e d410 683e
000002f0: bde7 58be c07e bbbd 0875 a5bd 84e4 4a3d
00000300: 3b3b ef3e 3b02 953e e22a 11bd 2bec da3e
00000310: dadf f8be 1343 17bf 9828 80bf b16c 4abf
00000320: caf2 eb3e 0e73 bebe 9f77 eabd 2366 33bf
00000330: cbe2 923e 8fd6 83be d3e5 df3e 76cb 2c3f
00000340: 01cf b1be 362b 1bbf 4379 d7be a5a4 233e
00000350: 40de a13e 6db0 5cbf ffcb 16bf 6cd3 ecbe
00000360: 152f c83e b111 fabe bdb6 fd3e 14ef b3be
00000370: b9c0 62bf 93a7 5bbf 4781 4bbf 0221 843e
00000380: d101 d3be dbd8 21bf bb24 373f e18b 30bf
00000390: fe7a 26bf efe6 213f 1c49 3e3f 6e52 39bf
000003a0: a5be 9ebe 77cc 6ebf 71e2 80be 3aaf 78bf
000003b0: 5169 ce3e b886 5fbf ad52 d03e 7af2 bebe
000003c0: bc2a 46bd f23e 3fbf ea30 9d3e baba 513f
000003d0: e7b4 c93e 1b2f b33d 6107 48bf 30e7 043f
000003e0: 71a0 47bf 1a8b c6be d65b 5dbe 4e6e 7cbf
000003f0: b4c4 c03e 4e68 b4be 9852 29bf 6f71 20be
0.3538186 -0.86599165 0.7802061 0.41704175 -0.14525115 0.40224123 0.0700339 0.19692744
-0.7790938 -0.3148295 -0.5111083 0.0069787377 -0.6389837 0.3839328 -0.19635652 -0.70591944
-0.057919215 -0.36245432 0.44767097 0.38738713 -0.8562695 0.14327377 0.14819843 -0.23742492
-0.52781165 -0.34701943 0.48923233 0.111484304 0.16345808 0.2938744 0.2820142 0.2424205
0.2894218 -0.09435774 -0.748259 0.16026726 0.21686962 -0.646617 -0.50050294 -0.29915753
-0.21558516 0.05726935 -0.36942157 0.2894152 0.25815496 0.15346056 -0.7970491 0.40065783
-0.66066694 -0.24760427 -0.35785845 -0.4239025 -0.23594798 0.40674627 0.3059178 -0.77074033
0.26830932 -0.22957547 -0.33117703 0.27768365 -0.77066374 -0.3078562 -0.0086806165 -0.5206639
-0.4047913 0.18103008 -0.54123163 -0.51663387 0.16074844 0.100261 0.027576258 0.18917327
-0.05645855 0.13702017 0.32083598 0.33133867 0.48556328 -0.6640894 -0.4251951 -0.28624448
-0.4649482 0.10017547 -0.4699401 -0.6547824 0.22462611 0.07033778 -0.38266066 0.4044086
0.39543593 0.5649891 -0.45629758 -0.60908866 0.17600626 0.29448006 0.28462237 -0.71898794
-0.48942658 0.17659803 -0.112805724 0.19516823 0.3774565 -0.06285424 -0.090200916 0.13046584
0.3719435 0.016373198 0.40295297 0.29459858 0.29238147 0.32776165 0.020764 -0.46583226
0.3510955 0.028527206 -0.51221555 -0.019721352 -0.5542532 -0.7714422 0.3047681 -0.05493948
0.2570008 -0.33115432 0.4177634 0.24058867 0.45375106 0.44330263 0.34679678 0.3743664
-0.5106676 0.2703753 -0.63192016 0.066714145 0.3983781 0.30845252 0.0067999684 0.22541213
0.24990545 0.33167955 -0.2294551 0.20569773 -0.5677397 0.3405802 0.2079555 -0.118201025
0.22412914 0.2935861 0.21448365 0.32677954 0.15753308 -0.49857756 0.23778267 -0.29187313
-0.39819682 0.025598682 -0.31924376 0.093280114 -0.44880784 0.21568772 -0.4283988 0.21660256
0.26014107 0.20944554 -0.5137775 -0.3953257 -0.50512946 0.04121378 -0.28374058 0.25986564
0.031477056 -0.10464563 0.36841786 0.19811288 -0.5965404 0.0458611 0.20948367 0.27428132
0.069310755 0.0426197 0.41294762 -0.660031 0.3049714 0.05304638 0.2778311 0.07207796
0.2520783 0.46648237 0.33343697 0.2266267 -0.21182151 -0.09155035 -0.080789626 0.049534336
0.46724877 0.29103264 -0.035441287 0.42758307 -0.48608285 -0.5908672 -1.0012388 -0.790721
0.4608367 -0.37197155 -0.11448597 -0.70077723 0.28688654 -0.25749633 0.4373003 0.67497957
-0.34728244 -0.6061281 -0.42084703 0.15980776 0.31614876 -0.86206704 -0.58905023 -0.46255052
0.3909842 -0.48841622 0.4955348 -0.3514334 -0.8857532 -0.8580257 -0.79494137 0.25806433
-0.41212323 -0.6322152 0.7154042 -0.6896344 -0.6503142 0.63243 0.74330306 -0.723914
-0.31004825 -0.9328074 -0.2517276 -0.97142375 0.40314725 -0.8731494 0.40688077 -0.3729437
-0.0483806 -0.7470542 0.3070138 0.8192555 0.3939583 0.08749219 -0.7813626 0.51915264
-0.7797919 -0.38778 -0.21617064 -0.9860581 0.37650073 -0.35235828 -0.66141653 -0.15668271

model/dense/BiasAdd/ReadVariableOp f4 [128]
00000000: a38f 0bbd ab32 2abd a34f 8c3c 4b1c a43c
00000010: da90 23bc b658 6f3d 2036 5f3c b921 82bc
00000020: 9fe1 423c 9481 95ba e9c1 283b 6267 bd3c
00000030: e486 453d e2a3 d8bb 722d d63b f527 263c
00000040: 4cbc d4bb 7e7e 533c ce97 6d3d 454e 2e3c
00000050: e5bb 45bc 5537 3d3d 07b3 013d bca0 3c3a
00000060: c44a ff3c a7df 8a3b 5145 153d 39e3 9f3c
00000070: cad7 473c 0ad0 853b 93d8 fd3c 2a37 c43c
00000080: 99a2 d03c 6874 b83c 8739 19bc 9a86 9abd
00000090: 720a 9fbb ca8d 38bc 9215 d63c 5a58 a63d
000000a0: b892 4e3c 4c26 33bc 660d 9dbc 2fe1 ca3c
000000b0: a479 163d f41b 853c 17d7 f43c f8e2 a93d
000000c0: 1fed b33c 3295 9b3b e88c abbb b6c6 e13c
000000d0: 9543 d03c d925 823c 0e33 083b 0d37 553a
000000e0: 688a 11bd 4e32 973b 2cda 423d 5062 a23c
000000f0: c147 93bb e6a2 a13c 7894 a13c 7f74 263d
00000100: 9fcb 0bbd dc59 6b3c 9124 813d ff80 00bd
00000110: 5a9c ddbc 2550 31bc 0675 30bd d355 853b
00000120: 9880 383d 6fdc 263c e08d 043d c2aa 263d
00000130: 4375 5cbc dac0 303c 4466 b63c 77a9 1a3d
00000140: a52b ac3a 71cc f13b d68a a1bc 94d3 e13a
00000150: 1a7f 1e3c 5695 c33c e466 993c 1baf 093d
00000160: 2fb8 38bc 5925 9d3b d8f6 1bbc 1fff 56bd
00000170: 569b da3b c8c1 633b 79b4 6c3c b8e2 b83c
00000180: b7cc af3c 3335 453d 898c 643b 74a3 e53c
00000190: 1340 19bc 060a 563c d980 413c f0b3 153d
000001a0: df59 33bc 6678 9abc c8f5 b53b 25eb 1e3d
000001b0: 7086 363c 57ae 2f3d 7935 0c3d 9e0e 4d3b
000001c0: 7d0a ddbc 19d8 2b3c 0e30 b53c 9dd8 b3bc
000001d0: 69fb 933c d1dc 853c 6ec1 753c dd41 2a3d
000001e0: fff5 173d 1868 cf3c 848a 083c 8b5f 773d
000001f0: 3235 b03c 22e2 c4bc 1756 e73c 45f9 88bd
-0.03407253 -0.041552227 0.017127817 0.020033022 -0.009983266 0.05843421 0.013623744 -0.01588522
0.011894613 -0.0011406415 0.0025750345 0.023120586 0.048224345 -0.006611333 0.006536179 0.010141362
-0.0064921733 0.012908576 0.0580061 0.010638778 -0.012068723 0.046195347 0.031664874 0.0007195582
0.03116358 0.004238087 0.03644306 0.019517528 0.012197444 0.004083638 0.03098706 0.023952086
0.025468158 0.022516444 -0.0093520945 -0.075452045 -0.00485354 -0.011264274 0.026133332 0.081223205
0.012608223 -0.010934424 -0.019171428 0.024765579 0.0367371 0.01624868 0.02988772 0.08295244
0.021963654 0.00474801 -0.005235303 0.027560573 0.02542285 0.015887188 0.0020782384 0.00081335084
-0.035532385 0.004614151 0.047571346 0.01982227 -0.0044946377 0.019730996 0.019724116 0.040638443
-0.034129735 0.014364686 0.063058026 -0.03137302 -0.027052093 -0.010822331 -0.043080352 0.004069069
0.04504451 0.010184391 0.032361865 0.04069019 -0.013455692 0.010788167 0.02226556 0.03775927
0.0013135566 0.0073791076 -0.019719522 0.0017229193 0.009673858 0.02387492 0.01872582 0.03361426
-0.011274382 0.004795712 -0.009519301 -0.052489396 0.0066713495 0.0034752954 0.014447325 0.022569045
0.02145992 0.048146438 0.0034873805 0.028032042 -0.009353655 0.013063913 0.011810505 0.036548555
-0.01094672 -0.018856239 0.005552981 0.03879847 0.011140451 0.042890873 0.034230683 0.003128923
-0.02698254 0.010488533 0.02211764 -0.021953875 0.018064218 0.016340645 0.0149997305 0.04156672
0.037099835 0.02531819 0.008333806 0.06039385 0.02150974 -0.02403361 0.028239293 -0.066881694

model/dense_2/BiasAdd/ReadVariableOp f4 [4]
00000000: 6987 c3bd e87a 8fbe 69fc 9bbd 87bd f93e
-0.09547312 -0.28023458 -0.07616503 0.4877741

model/dense_1/BiasAdd/ReadVariableOp f4 [64]
00000000: ffee 3b3e b5f3 df3d 4f12 243e a7d7 263e
00000010: 3055 523d d32f ab3c b80c f1bc f5bf dd3b
00000020: 6802 523e 246c 543d ad86 7d3c 0aa6 f33c
00000030: e0b4 a13d 8f42 193e 64c1 1f3e 070e 5e3e
00000040: 5080 8b3d 525e 553d 868d de3d 2a63 013e
00000050: 9a83 123e d100 163d 75d4 8c3d f883 613d
00000060: 640c f43d 2e59 603d 5db1 4b3e a59f 8f3d
00000070: ebcf 323d b178 6e3c 8498 6d3d 282b 383e
00000080: 476b 983d 01e2 0a3d 72b2 4c3e 6b18 dc3b
00000090: 48e1 d0ba 50f5 563e 2ada 4d3e 79e7 033d
000000a0: 69e7 953c 6c30 9bba 39a7 f93c 0370 98bc
000000b0: f7df ea3d 6bfc 953c ec11 423e 3119 df3d
000000c0: d22c 843d 2ce9 203d 9082 1b3e e1ba 3e3e
000000d0: 7dca 313e cc13 283e 0a42 edbc a94e 443e
000000e0: f790 b93b 2646 963d c43f 4f3d 7b02 b3bb
000000f0: 4749 113e 9c85 1c3b b3ca 923c f33e 4d3c
0.18352889 0.10935155 0.16022609 0.16293202 0.051350772 0.020896828 -0.02942501 0.006767268
0.2050873 0.051860943 0.015474004 0.02974226 0.07895827 0.14966796 0.15601116 0.21685039
0.06811583 0.052091904 0.10866837 0.12635484 0.14308015 0.036621872 0.068764605 0.055057496
0.11916426 0.05477255 0.19891877 0.07012872 0.043655317 0.014555142 0.05800678 0.17985213
0.074423365 0.03390694 0.19989946 0.006716778 -0.001593628 0.20992017 0.20102754 0.03220317
0.018298822 -0.0011839992 0.030475246 -0.018608099 0.11468499 0.018308839 0.18952149 0.10893477
0.06453861 0.03928487 0.15186524 0.18625976 0.173624 0.16413802 -0.028962154 0.19170631
0.005663033 0.073375985 0.05059792 -0.005462942 0.1418811 0.0023883348 0.01791892 0.012527215

model/dense/MatMul i1 [128, 34] scale=0.0069696424 zero_point=0
00000000: dd10 daed ef12 eef3 fafe ed08 17e9 f12c
00000010: 03f6 c4f3 fee7 fa6e 2bab 9a21 cdef e101
00000020: fff6 e40d e1fa f7f8 0df4 211e fa21 f9e7
00000030: ef2c e2fe f315 f9ee e222 08d6 0a20 1038
00000040: e508 ee19 fcff 1cfc 0a0a 05ea 140c 06ed
00000050: ef10 1e06 1006 0a0c 4df8 ffc6 f44a 64fb
00000060: 2e04 fac8 f6d4 140e 1fe9 f604 35f2 0f00
00000070: 56e1 1b11 3e30 0d31 0841 0c30 1b0d f6e0
00000080: 14fd 090e ecd0 07c5 0b28 08fb f4f7 06fd
00000090: 25ee 05e9 09ed 1be0 f81c f805 27f2 00bd
000000a0: 2859 69d5 524a fcd5 f6d2 e21e 0a21 f012
000000b0: f81c fd18 e7f8 cff1 e7d6 12ff 1a02 f7e8
000000c0: f9f6 f406 2db2 1ecb 0bab 20ad f10c f6f4
000000d0: e303 05e5 f0e7 1bee fafb 2935 f725 065a
000000e0: fa33 1b2b e2cd 22f9 f217 2bc8 d9de 10fa
000000f0: ec14 0419 0ef1 e412 e0f7 faed f735 091f
-0.24393748 0.11151428 -0.2648464 -0.1324232 -0.11848392 0.12545356 -0.12545356 -0.09060535
-0.041817855 -0.013939285 -0.1324232 0.05575714 0.16030177 -0.16030177 -0.10454463 0.30666426
0.020908928 -0.06969643 -0.41817853 -0.09060535 -0.013939285 -0.17424107 -0.041817855 0.76666063
0.29969463 -0.5924196 -0.7109035 0.2299982 -0.35545176 -0.11848392 -0.21605891 0.0069696424
-0.0069696424 -0.06969643 -0.19514999 0.09060535 -0.21605891 -0.041817855 -0.06272678 -0.05575714
0.09060535 -0.08363571 0.2299982 0.20908926 -0.041817855 0.2299982 -0.048787497 -0.17424107
-0.11848392 0.30666426 -0.20908926 -0.013939285 -0.09060535 0.14636248 -0.048787497 -0.12545356
-0.20908926 0.23696785 0.05575714 -0.29272497 0.06969643 0.22302856 0.11151428 0.39029998
-0.18818034 0.05575714 -0.12545356 0.17424107 -0.02787857 -0.0069696424 0.19514999 -0.02787857
0.06969643 0.06969643 0.034848213 -0.15333213 0.13939285 0.08363571 0.041817855 -0.1324232
-0.11848392 0.11151428 0.20908926 0.041817855 0.11151428 0.041817855 0.06969643 0.08363571
0.53666246 -0.05575714 -0.0069696424 -0.40423927 -0.08363571 0.5157535 0.69696426 -0.034848213
0.32060355 0.02787857 -0.041817855 -0.39029998 -0.06969643 -0.30666426 0.13939285 0.097574994
0.21605891 -0.16030177 -0.06969643 0.02787857 0.36939105 -0.097574994 0.10454463 0.0
0.59938926 -0.21605891 0.18818034 0.11848392 0.43211782 0.33454284 0.09060535 0.34151247
0.05575714 0.45302674 0.08363571 0.33454284 0.18818034 0.09060535 -0.06969643 -0.22302856
0.13939285 -0.020908928 0.06272678 0.097574994 -0.13939285 -0.33454284 0.048787497 -0.4112089
0.076666065 0.2787857 0.05575714 -0.034848213 -0.08363571 -0.06272678 0.041817855 -0.020908928
0.25787675 -0.12545356 0.034848213 -0.16030177 0.06272678 -0.1324232 0.18818034 -0.22302856
-0.05575714 0.19514999 -0.05575714 0.034848213 0.27181605 -0.097574994 0.0 -0.46696603
0.2787857 0.62029815 0.7318125 -0.29969463 0.5715107 0.5157535 -0.02787857 -0.29969463
-0.06969643 -0.32060355 -0.20908926 0.20908926 0.06969643 0.2299982 -0.11151428 0.12545356
-0.05575714 0.19514999 -0.020908928 0.16727142 -0.17424107 -0.05575714 -0.34151247 -0.10454463
-0.17424107 -0.29272497 0.12545356 -0.0069696424 0.1812107 0.013939285 -0.06272678 -0.16727142
-0.048787497 -0.06969643 -0.08363571 0.041817855 0.31363392 -0.5436321 0.20908926 -0.36939105
0.076666065 -0.5924196 0.22302856 -0.5784803 -0.10454463 0.08363571 -0.06969643 -0.08363571
-0.20211963 0.020908928 0.034848213 -0.18818034 -0.11151428 -0.17424107 0.18818034 -0.12545356
-0.041817855 -0.034848213 0.28575534 0.36939105 -0.06272678 0.25787675 0.041817855 0.62726784
-0.041817855 0.35545176 0.18818034 0.29969463 -0.20908926 -0.35545176 0.23696785 -0.048787497
-0.097574994 0.16030177 0.29969463 -0.39029998 -0.27181605 -0.23696785 0.11151428 -0.041817855
-0.13939285 0.13939285 0.02787857 0.17424107 0.097574994 -0.10454463 -0.19514999 0.12545356
-0.22302856 -0.06272678 -0.041817855 -0.1324232 -0.06272678 0.36939105 0.06272678 0.21605891

model/dense_1/MatMul i1 [64, 128] scale=0.007490525 zero_point=0
00000000: feee fb15 1dbd e5dc 01de 0bf7 e0ea f738
00000010: 00f0 ea14 0de9 04f5 08f2 e208 b7e3 df06
00000020: 0af1 05fd e3c7 19dc e20c 0927 1408 f9d6
00000030: 13e4 fce7 07a6 eaf6 fde4 b3e4 c4ea 3cdf
00000040: f2d3 dd22 dbc5 dec8 d40c b7ed f3fc f2f1
00000050: e21c e03f 0c08 f9e0 0e15 e210 e1fc d5fb
00000060: c6a7 d618 d4d2 f815 13de f628 fbdc dff4
00000070: fee0 d6d2 000a c5e2 17ea 020a e8fd 0af9
00000080: ef13 dd09 ee31 da1c e624 07fd 1f00 eacf
00000090: ecdf 13ea 0a13 d415 ec31 00ed 31e0 fcf0
000000a0: e204 0509 1af6 1030 e9ef 3ad5 fff0 0308
000000b0: df08 eb38 0039 28f8 f414 1d21 1900 d21b
000000c0: 22ed 0908 0925 3210 34f2 09e4 e3db 22f9
000000d0: 19c4 f5d5 fbea 000a 0d0a f2ed 1519 52f6
000000e0: 062d fff1 e81e 35f2 e7f4 09b3 2cef 0ed2
000000f0: 030f fafb e9e2 1b20 ea32 e1e1 2d0c 0519
-0.01498105 -0.13482945 -0.037452623 0.15730102 0.21722522 -0.50186515 -0.20224418 -0.2696589
0.007490525 -0.25467786 0.08239578 -0.06741472 -0.2396968 -0.16479155 -0.06741472 0.41946942
0.0 -0.1198484 -0.16479155 0.1498105 0.09737682 -0.17228207 0.0299621 -0.08239578
0.0599242 -0.104867354 -0.22471575 0.0599242 -0.5468083 -0.21722522 -0.24718733 0.04494315
0.07490525 -0.11235788 0.037452623 -0.022471575 -0.21722522 -0.42695993 0.18726313 -0.2696589
-0.22471575 0.0898863 0.06741472 0.29213047 0.1498105 0.0599242 -0.052433677 -0.31460205
0.14231998 -0.20973471 -0.0299621 -0.18726313 0.052433677 -0.67414725 -0.16479155 -0.07490525
-0.022471575 -0.20973471 -0.5767704 -0.20973471 -0.4494315 -0.16479155 0.4494315 -0.24718733
-0.104867354 -0.33707362 -0.26216838 0.25467786 -0.27714944 -0.44194096 -0.25467786 -0.41946942
-0.3295831 0.0898863 -0.5468083 -0.14231998 -0.09737682 -0.0299621 -0.104867354 -0.11235788
-0.22471575 0.20973471 -0.2396968 0.4719031 0.0898863 0.0599242 -0.052433677 -0.2396968
0.104867354 0.15730102 -0.22471575 0.1198484 -0.23220627 -0.0299621 -0.32209256 -0.037452623
-0.43445045 -0.66665673 -0.31460205 0.1797726 -0.3295831 -0.34456414 -0.0599242 0.15730102
0.14231998 -0.25467786 -0.07490525 0.299621 -0.037452623 -0.2696589 -0.24718733 -0.0898863
-0.01498105 -0.2396968 -0.31460205 -0.34456414 0.0 0.07490525 -0.44194096 -0.22471575
0.17228207 -0.16479155 0.01498105 0.07490525 -0.1797726 -0.022471575 0.07490525 -0.052433677
-0.12733893 0.14231998 -0.26216838 0.06741472 -0.13482945 0.36703572 -0.28463995 0.20973471
-0.19475365 0.2696589 0.052433677 -0.022471575 0.23220627 0.0 -0.16479155 -0.36703572
-0.1498105 -0.24718733 0.14231998 -0.16479155 0.07490525 0.14231998 -0.3295831 0.15730102
-0.1498105 0.36703572 0.0 -0.14231998 0.36703572 -0.2396968 -0.0299621 -0.1198484
-0.22471575 0.0299621 0.037452623 0.06741472 0.19475365 -0.07490525 0.1198484 0.3595452
-0.17228207 -0.12733893 0.43445045 -0.32209256 -0.007490525 -0.1198484 0.022471575 0.0599242
-0.24718733 0.0599242 -0.15730102 0.41946942 0.0 0.42695993 0.299621 -0.0599242
-0.0898863 0.1498105 0.21722522 0.24718733 0.18726313 0.0 -0.34456414 0.20224418
0.25467786 -0.14231998 0.06741472 0.0599242 0.06741472 0.27714944 0.37452626 0.1198484
0.3895073 -0.104867354 0.06741472 -0.20973471 -0.21722522 -0.27714944 0.25467786 -0.052433677
0.18726313 -0.4494315 -0.08239578 -0.32209256 -0.037452623 -0.16479155 0.0 0.07490525
0.09737682 0.07490525 -0.104867354 -0.14231998 0.15730102 0.18726313 0.61422306 -0.07490525
0.04494315 0.33707362 -0.007490525 -0.11235788 -0.1797726 0.22471575 0.39699784 -0.104867354
-0.18726313 -0.0898863 0.06741472 -0.5767704 0.3295831 -0.12733893 0.104867354 -0.34456414
0.022471575 0.11235788 -0.04494315 -0.037452623 -0.17228207 -0.22471575 0.20224418 0.2396968
-0.16479155 0.37452626 -0.23220627 -0.23220627 0.33707362 0.0898863 0.037452623 0.18726313
