models/pose_classifier.tflite (tflite, 27496 bytes, 6 tensors)

model/dense_2/MatMul f4 [5, 64]
000000 67 25 b8 be 60 54 b4 bd ae 3b cb be 4d 76 71 3e
       -0.35966036 -0.08805156 -0.3969397 0.23580284
000010 c3 9c 6a be a8 8b da 3d ed 71 33 3e 26 47 09 3e
       -0.22911362 0.106711686 0.17523928 0.13406047
000020 63 34 d3 be 4c 0e 7f 3e 5b 4c 83 3c 62 2a 09 be
       -0.41250905 0.24907798 0.01602762 -0.13395074
000030 b1 b6 b1 3d c9 52 ba bd 59 7b a5 3e 6d 49 03 bf
       0.08677424 -0.09097821 0.3232067 -0.51283914
000040 17 65 c1 3d 51 44 80 be 3a 0c c0 be 3a e5 65 3d
       0.094431095 -0.2505212 -0.37509328 0.05612681
000050 44 ca 44 be 08 5c 77 bc 14 65 31 3e df 79 ac 3d
       -0.19217783 -0.015097626 0.17323714 0.084216826
000060 b3 2c 23 3e a6 61 ea be 84 1f 51 3e 26 67 94 3c
       0.1593502 -0.45777625 0.20422179 0.018115591
000070 4b 0e 53 bd 5a ba 9a be 62 cf fc be ba 6e 23 3e
       -0.051527303 -0.302203 -0.4937697 0.15960208
000080 3f d9 eb be 58 77 f5 3d 38 3c e6 bc 64 0a 82 3e
       -0.46064183 0.11985654 -0.028104886 0.25398552
000090 07 5b 97 be 2f c5 99 3b eb 93 e1 3d 13 74 93 be
       -0.29561636 0.0046926956 0.11014541 -0.28799495
0000a0 6a 75 69 3e ec 73 d4 be 82 b0 ea be 3f 40 f7 3d
       0.22798696 -0.4149469 -0.4583779 0.12072801
0000b0 75 dd ea be 19 7d d0 3e 3f 68 73 be b9 62 6d 3e
       -0.45872083 0.40720442 -0.23770235 0.23182191
0000c0 08 aa 63 be a2 7c b3 3e 4e de 5f be 20 e8 5c 3e
       -0.2223283 0.35056025 -0.21862146 0.21572924
0000d0 9c 2c 47 be 4a 6a c4 be 3e 7f a8 be dc b5 60 3e
       -0.19450611 -0.38362342 -0.32909578 0.21944374
0000e0 df 86 82 3d bd 4b 4a be fb 6b 77 3e 1a af 06 be
       0.06373381 -0.19755454 0.24162285 -0.13152733
0000f0 09 61 0c bf a3 64 0a 3e 21 3e 98 3e b9 2b 82 3e
       -0.54835564 0.13514952 0.297349 0.25423983
000100 74 c8 58 3e 10 fe 12 bf 12 33 c1 be e2 c6 d2 be
       0.21170217 -0.5741892 -0.37734276 -0.4116736
000110 c4 ac 02 bf 41 57 48 bd 7a 41 fe 3d 14 1a ce 3d
       -0.5104487 -0.048911337 0.124148324 0.10063568
000120 1a fa 00 bf 2f 4c fa 39 d1 2b e3 be b1 90 92 be
       -0.50381625 0.00047740477 -0.44369367 -0.28626016
000130 ca 9e 15 bf 31 8c c8 3e e0 83 95 be f0 20 a3 3e
       -0.5844542 0.39169458 -0.29202175 0.31861067
000140 22 58 91 bd b7 f8 18 be 19 ee d2 3e 2a 3c 1b 3e
       -0.07096888 -0.14938627 0.4119728 0.1515967
000150 fd c4 04 3d 04 6a 82 be c3 14 f4 be 29 ad 99 be
       0.032414425 -0.25471509 -0.4767209 -0.30014923
000160 7c 5b 09 be 50 aa e2 3e 6f 6c fc be 7f 60 31 3e
       -0.13413805 0.44270563 -0.49301478 0.17321967
000170 38 df 3c be 10 18 6a 3e df 5b 8f 3d 20 a0 d1 be
       -0.18444526 0.22860742 0.06999945 -0.40942478
000180 84 f6 2b bd c0 61 00 3e 89 ed 49 3e 80 66 a8 be
       -0.041983142 0.12537289 0.19719519 -0.328907
000190 96 af 6c 3e 47 41 12 3e f6 6a fc 3e 25 54 8f 3d
       0.23113856 0.14282714 0.49300355 0.06998471
0001a0 03 fe e5 be 8a 75 83 3e cd 39 ee bd d8 4b 5e 3e
       -0.44920358 0.25675613 -0.116321184 0.2170862
0001b0 29 45 0a bd 94 2b f3 be dd 8d 9a be 5c 54 85 be
       -0.033757363 -0.47494185 -0.30186358 -0.26040924
0001c0 f2 ea a1 3e 37 df d4 be 56 bc 33 be 15 0b fb 3d
       0.31624562 -0.4157655 -0.17552313 0.12257973
0001d0 db 1f da be 08 fe 8f 3e 86 11 8c 3e 3b ba ac bd
       -0.4260243 0.28123498 0.2735712 -0.08433958
0001e0 ab 20 73 be 8c 60 90 3e d8 f6 2d 3e c5 67 01 bf
       -0.2374293 0.2819866 0.16988695 -0.50548965
0001f0 a9 cb b6 3e e4 cb b8 be 84 2d 83 3d 9a fb d3 be
       0.35702255 -0.36093056 0.06405166 -0.41402894
000200 9d c5 b0 3e 2a 41 85 3e 8e ac 9d 3e 8e d8 f1 be
       0.34525767 0.2602628 0.3079571 -0.4723553
000210 fc 81 80 3e f1 09 ec be a3 d1 95 3e c5 a4 1c bf
       0.2509917 -0.46101335 0.29261503 -0.6118892
000220 1a 7d 73 3e b6 ce f7 bb 08 e6 38 be 4e b9 10 3e
       0.23778191 -0.0075624837 -0.180565 0.14133188
000230 76 28 81 3e 9f 1a 66 3e ea a1 e6 be 81 8c a2 3d
       0.25226182 0.22471093 -0.45045406 0.07936955
000240 0c a0 75 3e ee 0a 44 3e 23 f9 cd be 63 57 08 bf
       0.23986834 0.19144794 -0.4022914 -0.5325834
000250 76 66 91 be 03 16 c3 be 58 6c d3 3d b1 37 78 be
       -0.28398484 -0.3810273 0.10323399 -0.24239995
000260 24 fb 6b be 3d 21 4b be 95 a7 00 bf f6 e2 9e 3d
       -0.23045021 -0.19836898 -0.5025571 0.07758133
000270 c2 4e 95 3e de a4 58 3e ad 7e 20 be a5 5b f4 be
       0.2916165 0.21156642 -0.15673323 -0.4772617
000280 6e 57 73 3e e1 5c c7 bd d2 ca 68 be 70 5c 17 3e
       0.2376382 -0.09734512 -0.2273362 0.14781356
000290 18 e6 13 bd 64 7c 0c bf 06 58 aa be 97 7a 24 be
       -0.036108106 -0.54877305 -0.33270282 -0.1606239
0002a0 65 2b 08 bf 8d 57 84 be 6b 83 69 be b2 c5 f7 be
       -0.53191215 -0.25848046 -0.22804038 -0.48393017
0002b0 61 ab 5f 3c df ef 4b 3e b1 62 8f 3e d8 12 b0 be
       0.0136517 0.19915722 0.28004983 -0.34389377
0002c0 e1 ca fa be f6 4e a2 be 78 a7 c0 3e 1d fb c8 be
       -0.4898291 -0.31700867 0.3762777 -0.39254084
0002d0 06 8b ed 3d 1d 4c 51 3e 32 ee d6 be a7 04 d8 be
       0.11598782 0.20439191 -0.41978604 -0.4219105
0002e0 b4 a6 1d bf 5d 5c 21 3e 4e ec f9 bd 65 de 01 3e
       -0.61582494 0.1575789 -0.12203275 0.12682493
0002f0 2b 45 c8 be 4b a7 03 bf 41 3c 44 be 0c d0 2d 3e
       -0.3911527 -0.51427144 -0.1916361 0.16973895
000300 78 5c be be 5a 93 d9 3e 2f 87 2d 3e 02 8c 80 3e
       -0.37179923 0.42495233 0.169461 0.25106817
000310 66 fd 98 3e 54 6e 31 be 83 96 e9 be d9 8d 64 3e
       0.29880828 -0.17327243 -0.45622644 0.22319736
000320 1e d6 90 3e 81 a0 33 be 3f 76 0e bd 73 98 a5 be
       0.28288358 -0.17541696 -0.034780737 -0.32342872
000330 8b 97 ef 3c 9a 7e 13 bd b5 c9 07 3e 25 dc e4 bd
       0.029247066 -0.03600941 0.13260539 -0.11174802
000340 78 ab 0a bf 13 6d 24 be aa 9b 3c be 5c cd e5 3c
       -0.5416789 -0.16057234 -0.18418756 0.028052025
000350 be 6d cd 3d b9 2b cc 3e 4a d1 e5 be 6b 20 a2 be
       0.10030697 0.39877108 -0.44886237 -0.31665358
000360 4a 15 79 3e 1b 14 c5 be 20 4f 5f be 1b 29 d0 be
       0.24324527 -0.38491902 -0.21807528 -0.4065636
000370 e4 de fc 3d e7 fa de be c3 c0 13 be 96 58 c3 3d
       0.123472005 -0.43550798 -0.14429002 0.09538381
000380 ca 7d 92 3e 22 71 8b 3e 69 4d 28 bf 97 0c a6 be
       0.28611594 0.2723475 -0.6574312 -0.3243148
000390 85 dd 0d bf 10 a0 a7 3e 24 ce ed bc 6e c4 d1 be
       -0.55416137 0.32739305 -0.02902896 -0.40970176
0003a0 fa 05 02 be 9f cd c4 be 4a 2a 81 be 70 e8 eb ba
       -0.12697592 -0.38438126 -0.25227576 -0.0017998349
0003b0 0d dd f7 be 94 c1 9f be 4f 28 ee be d3 10 31 3e
       -0.48410836 -0.31202376 -0.46515128 0.17291574
0003c0 09 ab 3a 3e 8f 9f 8b be b5 fe 38 bb f7 a7 8a 3e
       0.18229307 -0.2727017 -0.002822799 0.27081272
0003d0 51 bd ad 3e 24 7f bd 3e ed a8 ad be 0d 66 1a 3e
       0.339335 0.37011063 -0.33917943 0.15077992
0003e0 04 52 fa 3d b0 3c 74 3e 14 c2 d4 be 15 e2 a0 3e
       0.122226745 0.23851275 -0.4155432 0.31422487
0003f0 d6 1e 44 be 21 fb 05 bd e5 94 ec be 70 61 c2 be
       -0.19152388 -0.0327102 -0.46207348 -0.37964964

model/dense/BiasAdd/ReadVariableOp f4 [128]
000000 91 3b 23 3d b7 16 49 bd 27 8f 6c 3c e0 ce 43 3d
       0.03985173 -0.04909393 0.014438427 0.047804713
000010 21 0d 4a bd 43 1d 75 3c d9 52 d7 3c 26 fb 66 3d
       -0.049328927 0.01496059 0.026284622 0.056391858
000020 9f 6b 12 3d 4c 22 a7 3d 74 bd 87 3d 96 98 ff 3d
       0.035747167 0.081608385 0.06627932 0.12480275
000030 c0 6d 54 3d 17 4c 8f 3d 8b f4 dd 3d ce 0b 97 bc
       0.05186248 0.06996935 0.108376585 -0.018438246
000040 0a 4e 06 3d eb 8c 82 3d 24 6f 6a bd d7 4f 01 3c
       0.032789268 0.06374534 -0.0572349 0.00789257
000050 5b dd 23 3c 74 2f 46 3c 1e f9 fe bc 55 57 a0 3d
       0.010001506 0.012096275 -0.031124648 0.07829157
000060 68 f0 8d bc 18 09 8c 3d 97 9c 23 3b 47 24 b4 3d
       -0.017326549 0.06837672 0.002496516 0.08795982
000070 e0 ee b3 3c 16 da cb 3c 42 e4 87 3d fd e6 8c 3d
       0.02196449 0.024884265 0.066353336 0.06879995
000080 8f 50 84 3d 33 c0 d2 3c 63 e7 fa bc 2d 4d 59 bd
       0.06460678 0.025726413 -0.030627912 -0.053052116
000090 dc 27 bc 3b d5 39 a1 3d 83 89 05 bd 40 73 88 3b
       0.0057420563 0.07872359 -0.032601845 0.0041641295
0000a0 a6 aa 21 3d da 11 fd bc 6a a8 2b 3c 52 a4 c9 3c
       0.039469384 -0.030892301 0.010477165 0.024614487
0000b0 48 0b 05 bd 4d b8 96 3d 5d be ee 3c 7a 0c cc 3c
       -0.03248146 0.07359371 0.029143507 0.024908293
0000c0 5b 73 88 bb a1 91 c7 3c 26 17 19 3d a7 73 f3 3c
       -0.004164142 0.024361433 0.03737559 0.029718233
0000d0 5b e6 5d 3c 93 5f d2 3c 11 fb 9f 3c e8 a5 9c bb
       0.013543691 0.025680339 0.019528897 -0.0047805198
0000e0 64 40 1e 3d 26 69 ab bc f6 5d e1 b9 13 3e 95 3c
       0.038635626 -0.020924162 -0.0004298535 0.018218076
0000f0 c6 4e 09 3d 56 2b ca bb 46 db a0 3d 4c e3 51 3d
       0.03352239 -0.006169717 0.07854323 0.051242158
000100 41 b6 33 bc 82 de 04 3c d3 b8 93 3c 4c 58 ad 3c
       -0.010968746 0.008109691 0.018032467 0.021160267
000110 21 8d 96 bb fc af 61 3d 3d 7c 80 3d 21 95 fb 3b
       -0.0045944606 0.055099472 0.062736966 0.0076776897
000120 cf 73 b4 3c 89 e1 d7 bc a6 0b 84 bc cf 5f 1e 3d
       0.022027878 -0.02635266 -0.016118836 0.03866559
000130 15 53 9c 3c 86 70 52 bc 05 cf ce 3b 7a 26 3e bc
       0.019082585 -0.0128442105 0.0063112997 -0.011605853
000140 cd 86 e2 3c 4b 9e 02 3d c3 3f 59 3d 55 75 06 3d
       0.027652169 0.03188924 0.053039324 0.03282674
000150 b5 68 3b 3b fd 0d 54 3c bc d0 25 bd df 9e 42 3d
       0.0028596346 0.012942788 -0.040482268 0.047514793
000160 4d 93 35 3c bb 2a ad bc ca 26 ab 3d 27 71 cd 3d
       0.0110824825 -0.02113854 0.08357008 0.10031348
000170 89 4b d2 3c 5e 46 9e 3d 63 ee 1b 3d 25 7e 92 3d
       0.025670784 0.07728265 0.03806914 0.071529664
000180 86 97 5a 3d 2e 0c aa bc 7a 47 90 bc ce 7d 2d 3d
       0.05336716 -0.02075776 -0.017612208 0.042356305
000190 f1 17 b2 3c e8 10 10 3d 04 7d c8 3c 0c ed 11 3c
       0.021739932 0.035172373 0.024473675 0.008906614
0001a0 f1 aa d1 3c da 3a d4 3c 77 18 b8 3b f1 4a c0 3d
       0.025594207 0.025906969 0.005618151 0.09389294
0001b0 03 b6 b8 bc da 26 f0 3c a6 17 ec 3c e5 66 0b 3d
       -0.022547727 0.0293154 0.02881987 0.034033675
0001c0 7a 2a bf bc da 83 2b 3d e6 2b 95 3d a8 f6 00 3d
       -0.023335684 0.04187379 0.072837636 0.03148523
0001d0 15 5a bd 3d e7 71 79 3d 9f aa 0a bc 09 70 ab 3d
       0.092456974 0.06089964 -0.008463531 0.083709784
0001e0 5f 15 f9 3b 42 04 7a bb 18 e2 7c 3d e0 a4 74 bc
       0.0076014246 -0.003814951 0.061739057 -0.014931887
0001f0 88 67 89 3d fe 5b c2 3d 96 9e d5 3d ab 45 42 bd
       0.067092 0.09490202 0.104306385 -0.04742972

model/dense_2/BiasAdd/ReadVariableOp f4 [5]
000000 76 38 04 bd 75 af 2c 3d 37 93 fd bd 92 89 ed 3d
       -0.032280408 0.042159516 -0.12381595 0.11598505
000010 16 81 5d bd
       -0.054078184

model/dense_1/BiasAdd/ReadVariableOp f4 [64]
000000 f9 ea 40 3d be a5 3a 3d e7 61 e5 3c 9a 73 3c 3d
       0.047099087 0.04556822 0.028000785 0.046008684
000010 0a 53 19 3d 50 18 80 3d c2 8a d7 3c 69 23 34 3e
       0.037432708 0.06254637 0.026311282 0.17591633
000020 bc a8 2f 3d 3b d8 b1 bc 49 3e dd 3c ef 47 70 3c
       0.042885527 -0.021709552 0.027007239 0.014665588
000030 a6 63 1a 3d 61 21 aa 3d fe cb 32 3d ac 33 e0 3d
       0.03769269 0.08307148 0.043651573 0.10947356
000040 d7 e3 1a 3d b7 60 23 3d 43 2a ec 3d 3d da eb 3d
       0.03781494 0.039887156 0.11531498 0.11516235
000050 bc 71 af bc ce f8 63 3d 78 b6 02 3d a6 28 ad bc
       -0.021416537 0.0556572 0.031912297 -0.021137547
000060 7e 98 ad 3d 41 52 ae 3d a3 80 65 3c 11 06 30 3d
       0.08476351 0.085117824 0.01400772 0.042974535
000070 ff c0 68 3b fc 36 8a 3d 31 9b 83 3d 0a 1e 9c 3d
       0.0035515425 0.06748769 0.06426085 0.07622917
000080 18 09 a4 3c 23 82 97 3d 52 ed ab 3d 66 66 0e 3d
       0.020023867 0.073978685 0.08394875 0.034765624
000090 05 ca c1 3d 7e dc 0a 3e 86 0a 83 3d d2 cf 05 3d
       0.0946236 0.13560674 0.063984916 0.032668896
0000a0 d5 83 55 3c ca 30 ff 3d 27 19 eb 3c 12 35 dc 3d
       0.0130319195 0.12460478 0.028698517 0.1075231
0000b0 db 3e 1b 3d 28 27 a9 b7 b8 e3 89 3c 4d ba 9d 3d
       0.03790174 -2.0164603e-05 0.016832218 0.0770155
0000c0 7a 3d a9 3d a6 38 35 3b 31 80 a6 bc 0d 60 29 3e
       0.08263679 0.0027652173 -0.020324798 0.16540547
0000d0 6b 05 4e 3d a7 ed a6 3d e8 63 85 3d f7 a8 e0 3d
       0.050298136 0.08150797 0.06513196 0.109697275
0000e0 78 6f f1 3d f7 3c a5 3d 73 d8 eb 3b 5a 93 82 3d
       0.11788839 0.08068269 0.0071974336 0.06375761
0000f0 94 70 f0 3d 50 e1 4e 3d a7 07 ac 3c 5b 38 90 3b
       0.117402226 0.050507843 0.020999743 0.0044012493

model/dense/MatMul i1 [128, 34] scale=0.0048935097 zero_point=0
000000 07 f2 1b 27 1e 39 13 23 14 28 df 39 1f 19 13 f8
       0.034254566 -0.06850913 0.13212477 0.19084688 0.14680529 0.27893004 0.09297668 0.17127284 0.09787019 0.19574039 -0.16148582 0.27893004 0.1516988 0.12233774 0.09297668 -0.039148077
000010 36 13 dc 26 1a 1c f7 36 ed fb fc 11 1f 04 35 48
       0.26424953 0.09297668 -0.17616636 0.18595336 0.12723126 0.13701826 -0.04404159 0.26424953 -0.09297668 -0.024467548 -0.019574039 0.083189666 0.1516988 0.019574039 0.25935602 0.3523327
000020 15 30 fe eb e3 04 13 d2 fc fd fa ee 0c cf f2 17
       0.102763705 0.23488846 -0.009787019 -0.102763705 -0.14191177 0.019574039 0.09297668 -0.22510144 -0.019574039 -0.014680529 -0.029361058 -0.08808318 0.058722116 -0.23978198 -0.06850913 0.11255072
000030 f1 05 07 06 0f f2 24 ef 2d 5e d0 a3 00 39 ee 44
       -0.07340264 0.024467548 0.034254566 0.029361058 0.07340264 -0.06850913 0.17616636 -0.083189666 0.22020793 0.4599899 -0.23488846 -0.4550964 0.0 0.27893004 -0.08808318 0.33275867
000040 05 2c e5 e8 df 2f dc f9 de 1f 28 f1 0b e4 1b fc
       0.024467548 0.21531442 -0.13212477 -0.11744423 -0.16148582 0.22999495 -0.17616636 -0.034254566 -0.16637933 0.1516988 0.19574039 -0.07340264 0.053828605 -0.13701826 0.13212477 -0.019574039
000050 16 ec f1 11 e8 14 1d 19 fa 21 fd fe ef ed e3 4d
       0.10765721 -0.09787019 -0.07340264 0.083189666 -0.11744423 0.09787019 0.14191177 0.12233774 -0.029361058 0.16148582 -0.014680529 -0.009787019 -0.083189666 -0.09297668 -0.14191177 0.37680024
000060 0a 3a 0d 41 f8 41 21 ed e3 17 1e 1b 1f da 20 d4
       0.048935097 0.28382355 0.06361563 0.31807813 -0.039148077 0.31807813 0.16148582 -0.09297668 -0.14191177 0.11255072 0.14680529 0.13212477 0.1516988 -0.18595336 0.15659231 -0.21531442
000070 1d f1 03 18 fc 25 e5 17 11 13 37 05 24 35 df b1
       0.14191177 -0.07340264 0.014680529 0.11744423 -0.019574039 0.18105985 -0.13212477 0.11255072 0.083189666 0.09297668 0.26914304 0.024467548 0.17616636 0.25935602 -0.16148582 -0.38658726
000080 fa 67 cd f5 05 27 cc cb fd ef db f1 f3 d8 06 e8
       -0.029361058 0.5040315 -0.249569 -0.053828605 0.024467548 0.19084688 -0.2544625 -0.25935602 -0.014680529 -0.083189666 -0.18105985 -0.07340264 -0.06361563 -0.19574039 0.029361058 -0.11744423
000090 13 ec 16 28 f0 e3 0f 18 ec 04 01 f8 20 e8 21 47
       0.09297668 -0.09787019 0.10765721 0.19574039 -0.078296155 -0.14191177 0.07340264 0.11744423 -0.09787019 0.019574039 0.0048935097 -0.039148077 0.15659231 -0.11744423 0.16148582 0.3474392
0000a0 e8 a6 14 f6 cf 15 14 2c 11 06 09 f1 12 05 e1 d7
       -0.11744423 -0.44041586 0.09787019 -0.048935097 -0.23978198 0.102763705 0.09787019 0.21531442 0.083189666 0.029361058 0.04404159 -0.07340264 0.08808318 0.024467548 -0.1516988 -0.2006339
0000b0 ee 00 e8 d9 07 e8 f2 e5 e8 f0 e8 35 d3 2a 1b 03
       -0.08808318 0.0 -0.11744423 -0.19084688 0.034254566 -0.11744423 -0.06850913 -0.13212477 -0.11744423 -0.078296155 -0.11744423 0.25935602 -0.22020793 0.20552741 0.13212477 0.014680529
0000c0 ef 44 d6 b2 32 3f 00 c8 2d 19 03 c8 eb 13 f8 05
       -0.083189666 0.33275867 -0.20552741 -0.38169375 0.24467549 0.3082911 0.0 -0.27403653 0.22020793 0.12233774 0.014680529 -0.27403653 -0.102763705 0.09297668 -0.039148077 0.024467548
0000d0 f6 21 ec ee ec 00 ea 05 09 e8 e8 da ec d1 09 cf
       -0.048935097 0.16148582 -0.09787019 -0.08808318 -0.09787019 0.0 -0.10765721 0.024467548 0.04404159 -0.11744423 -0.11744423 -0.18595336 -0.09787019 -0.22999495 0.04404159 -0.23978198
0000e0 c1 02 fb ee 0e 1a 0a ae 1e ef 2b de 04 4c e8 07
       -0.3082911 0.009787019 -0.024467548 -0.08808318 0.06850913 0.12723126 0.048935097 -0.4012678 0.14680529 -0.083189666 0.21042092 -0.16637933 0.019574039 0.37190673 -0.11744423 0.034254566
0000f0 eb 1d f9 2e eb 11 1a 0c 00 f7 10 14 e1 d9 d5 f8
       -0.102763705 0.14191177 -0.034254566 0.22510144 -0.102763705 0.083189666 0.12723126 0.058722116 0.0 -0.04404159 0.078296155 0.09787019 -0.1516988 -0.19084688 -0.21042092 -0.039148077

model/dense_1/MatMul i1 [64, 128] scale=0.0038461578 zero_point=0
000000 01 ce 18 0e 16 dc 20 a1 1f cf 0c 0c 1e 44 1a f0
       0.0038461578 -0.19230789 0.09230779 0.05384621 0.08461547 -0.13846168 0.12307705 -0.365385 0.11923089 -0.18846174 0.046153896 0.046153896 0.115384735 0.26153874 0.100000106 -0.061538525
000010 16 13 16 f8 35 10 02 0f dd 32 fc 10 e9 e4 05 18
       0.08461547 0.073077 0.08461547 -0.030769262 0.20384637 0.061538525 0.0076923156 0.057692368 -0.13461553 0.19230789 -0.015384631 0.061538525 -0.08846163 -0.10769242 0.019230789 0.09230779
000020 2b 15 d0 0e d1 25 fe e4 fd e5 e4 ee ea fa 33 31
       0.16538478 0.080769315 -0.18461558 0.05384621 -0.18076941 0.14230783 -0.0076923156 -0.10769242 -0.011538474 -0.10384626 -0.10769242 -0.06923084 -0.08461547 -0.023076948 0.19615404 0.18846174
000030 ef 0d fa d7 03 08 10 e0 b1 ed f8 e3 ec 27 2f 1c
       -0.065384686 0.050000053 -0.023076948 -0.15769248 0.011538474 0.030769262 0.061538525 -0.12307705 -0.30384648 -0.073077 -0.030769262 -0.111538574 -0.076923154 0.15000015 0.18076941 0.10769242
000040 de 1f c8 06 f8 13 d3 e1 d5 2c 0a 15 e4 16 f0 03
       -0.13076937 0.11923089 -0.21538484 0.023076948 -0.030769262 0.073077 -0.1730771 -0.11923089 -0.16538478 0.16923094 0.038461577 0.080769315 -0.10769242 0.08461547 -0.061538525 0.011538474
000050 26 de 3a 0d 4a 3d f0 0b 09 da fe f3 e3 fb 17 11
       0.146154 -0.13076937 0.22307715 0.050000053 0.28461567 0.23461562 -0.061538525 0.042307734 0.03461542 -0.146154 -0.0076923156 -0.050000053 -0.111538574 -0.019230789 0.08846163 0.065384686
000060 f9 ff 24 3a f0 1b ec 31 1e 27 04 27 ea 0b 17 d8
       -0.026923105 -0.0038461578 0.13846168 0.22307715 -0.061538525 0.10384626 -0.076923154 0.18846174 0.115384735 0.15000015 0.015384631 0.15000015 -0.08461547 0.042307734 0.08846163 -0.15384631
000070 bd 54 23 ef 19 d2 f3 42 02 0f c3 27 24 ef 2e 4e
       -0.25769258 0.32307726 0.13461553 -0.065384686 0.096153945 -0.17692326 -0.050000053 0.2538464 0.0076923156 0.057692368 -0.23461562 0.15000015 0.13846168 -0.065384686 0.17692326 0.3000003
000080 42 43 3d 40 15 34 b8 0b fc 4a 01 d2 fd ee 1e 3e
       0.2538464 0.25769258 0.23461562 0.2461541 0.080769315 0.20000021 -0.27692336 0.042307734 -0.015384631 0.28461567 0.0038461578 -0.17692326 -0.011538474 -0.06923084 0.115384735 0.23846178
000090 58 dc 1d 66 40 b0 14 0d 34 fb 59 22 1a b2 09 e3
       0.33846188 -0.13846168 0.111538574 0.3923081 0.2461541 -0.30769262 0.076923154 0.050000053 0.20000021 -0.019230789 0.34230804 0.13076937 0.100000106 -0.3000003 0.03461542 -0.111538574
0000a0 d7 d7 35 05 26 de 21 26 44 1c ea e0 34 c0 06 fc
       -0.15769248 -0.15769248 0.20384637 0.019230789 0.146154 -0.13076937 0.1269232 0.146154 0.26153874 0.10769242 -0.08461547 -0.12307705 0.20000021 -0.2461541 0.023076948 -0.015384631
0000b0 49 61 d5 ec 2d 26 11 e8 3e db e3 28 eb dd e4 e8
       0.28076953 0.3730773 -0.16538478 -0.076923154 0.1730771 0.146154 0.065384686 -0.09230779 0.23846178 -0.14230783 -0.111538574 0.15384631 -0.080769315 -0.13461553 -0.10769242 -0.09230779
0000c0 04 ea 39 3e 0b c0 3f 02 e2 5d 08 25 09 ea 17 ff
       0.015384631 -0.08461547 0.219231 0.23846178 0.042307734 -0.2461541 0.24230795 0.0076923156 -0.115384735 0.3576927 0.030769262 0.14230783 0.03461542 -0.08461547 0.08846163 -0.0038461578
0000d0 dc fc 08 10 50 41 2d ed 0b 0c fb fa 56 1b 0d d5
       -0.13846168 -0.015384631 0.030769262 0.061538525 0.30769262 0.25000027 0.1730771 -0.073077 0.042307734 0.046153896 -0.019230789 -0.023076948 0.33076957 0.10384626 0.050000053 -0.16538478
0000e0 06 39 39 09 1c fe 26 47 5f 1b 13 e1 55 1a 0e 22
       0.023076948 0.219231 0.219231 0.03461542 0.10769242 -0.0076923156 0.146154 0.2730772 0.365385 0.10384626 0.073077 -0.11923089 0.3269234 0.100000106 0.05384621 0.13076937
0000f0 2a cd d3 d1 1c f2 43 c9 20 c4 2a 2b 33 f5 31 33
       0.16153863 -0.19615404 -0.1730771 -0.18076941 0.10769242 -0.05384621 0.25769258 -0.21153867 0.12307705 -0.23076947 0.16153863 0.16538478 0.19615404 -0.042307734 0.18846174 0.19615404
